01_Intro_to_PyTorch/A.9_Optimizing_training_performance_with_GPUs/A.9.1_PyTorch_computations_on_GPU_devices/model.pth (torch, 5492 bytes, 6 tensors)

layers.0.weight f4 [30, 2]
00000000: 0c45 9ebe 2e58 d63d 33de b5be 90c1 903e
00000010: cf9b 1abf 4b4a 063f 7892 03bf ffea 0fbf
00000020: ecad ecbe a41b c33e dceb 8ebe 4b77 ab3e
00000030: eda2 19bf 4da8 dbbe 93ee 84be a54b 0ebe
00000040: b342 08bf fcd9 de3e 73dc 36be 001d 8c3e
00000050: 9fa1 003f 444a dc3d a8b9 0b3e d16e 3d3f
00000060: 508c a8be 1468 873e 4142 a9be f855 113f
00000070: b624 1e3f f1c4 2dbf 2618 033f b8d4 c53e
00000080: ab50 7a3e b5bd a23e 05a3 233f dd53 f6bd
00000090: bd4b 19bf 7e9f 4dbe 52ab 02bf ffd3 c23d
000000a0: 8b96 fbbc e1f6 dbbe d7a4 99bd dc3f 363f
000000b0: 3947 9a3c e2dc 64bd 0ef9 05be 1578 443e
000000c0: 9bc7 1c3f 78d9 f73e 88d8 863e a5cc 0e3e
000000d0: 1e2f 103e 8c16 c03e f9ed a2bd 66f2 29bf
000000e0: d9e1 e0be 5167 1c3f 1ca7 983d 5f51 17bf
-0.30912054 0.10466038 -0.35521087 0.28272676 -0.60393995 0.5245711 -0.5139537 -0.5621795
-0.46226442 0.38107026 -0.2791432 0.3348945 -0.6001423 -0.4290184 -0.25963268 -0.13896044
-0.53226775 0.43525684 -0.17857532 0.27365875 0.50246614 0.107563525 0.13645041 0.7399722
-0.3291955 0.26446593 -0.3305836 0.567718 0.61774766 -0.67878634 0.5120872 0.38638854
0.24444835 0.3178536 0.63920623 -0.120277144 -0.5988119 -0.20080373 -0.51042664 0.09513091
-0.030711433 -0.4296179 -0.07502144 0.7119119 0.01883279 -0.055874713 -0.13083288 0.19186433
0.61242074 0.48408103 0.26337075 0.13945253 0.14080474 0.37517202 -0.07955546 -0.66385496
-0.43922308 0.6109515 0.074537486 -0.5910854

layers.0.bias f4 [30]
00000000: bf6f 103e 6a13 173f 6c78 2abf 1abd f3be
00000010: 5cda 84be 8606 5d3d 49e0 28be b123 9fbd
00000020: 350c 33bf e73d b23e 2fd5 1b3f aff9 d83e
00000030: 01d3 f8be 971e 0cbf 9d7f a13e 4d8b acbc
00000040: 7e33 853e 4ea9 2bbf 87e9 29bd 2e29 043f
00000050: efb3 bd3e fe4b 283d 76d8 173e 8c01 1abd
00000060: f0de bebe 3e39 88be b479 c9be c774 173f
00000070: 2b98 c83e 8495 843e
0.14105128 0.59014 -0.6659 -0.4760521 -0.25947845 0.0539613 -0.16491808 -0.077704795
-0.699405 0.34812853 0.6087217 0.42377993 -0.48598483 -0.54734176 0.31542674 -0.021062518
0.26015848 -0.67055213 -0.041482475 0.51625335 0.3705134 0.041088097 0.14828667 -0.03759913
-0.37279463 -0.26606172 -0.39350665 0.59162563 0.39178595 0.2589532

layers.2.weight f4 [20, 30]
00000000: 10c7 34be 20a6 29bc a481 68bd cb55 013e
00000010: f0d7 23be 0875 55bd 5f8a 363e ea83 fb3d
00000020: e4eb 5a3d 1073 11be 9a99 a23e 9930 b1be
00000030: 10a8 8abc 5140 50be 67a4 ae3e 938e 173d
00000040: f624 303c 3782 983e 271e b93d 46e1 c2bd
00000050: a66d 633e 20a8 8ebe 7700 be3d 5882 42bd
00000060: c81b 983c 3d3b 4f3d 636d 23be bb46 4a3e
00000070: 6669 2abe 4682 9e3e 858a 6cbd dc37 7f3d
00000080: 50f9 373e 8a65 a0bd f882 2f3e 4bf9 bdbd
00000090: 88d1 a43d e37a 923d 1059 473d 3f74 113e
000000a0: 376c 99bd 44cc 313d 17fb 0539 a218 0fbe
000000b0: 0295 35bd ea96 fbbd f9be a13d e473 863c
000000c0: d381 923c 5af5 6bbd f523 663a ec98 79bd
000000d0: b9c4 543d 11d0 343e 2487 dd3c c99c a5bd
000000e0: 994d e5bd d6a6 643c 57ff 0fbe 8686 0cbe
000000f0: f070 f0bd 63f9 83bd 6a6e 463c 74bd 003e
00000100: b3d2 913d 2531 0f3e 40c7 eabd 0a6e 7c3c
00000110: f3fd 28be 2429 d63d 28f2 57bd 2521 2d3e
00000120: 27bb 04be e67c 163e e0c3 e43c ed13 bc3d
00000130: fd1e 40bc 3185 fe3d 6edc f93d f321 0b3e
00000140: f36a 13bd 3002 11be 0462 f0bb 103e 153d
00000150: e297 1abe 1091 e7bd 586c 30be 522f febd
00000160: 8a11 1f3e 7a85 b4bc 68b5 36bc c43f f03b
00000170: b226 e93d 1018 25be d740 10be 1aa1 78bd
00000180: 6f31 d7bd b3db c03d 9a19 043e b663 35be
00000190: 6daa 1ebe a10f 36be 590f 8d3d ec78 163e
000001a0: 57f4 10be dd1a adbd 14f9 6d3d b428 f4bd
000001b0: b5d0 1e3e 0f5d 2e3d 912e 50bd 5149 423c
000001c0: e025 693d 5d38 84bd 2add 10be c8d9 a03a
000001d0: f1f1 593b c447 713b a342 dabc 3614 f03d
000001e0: e6af 50bd 8dc4 90bc 7bbf 993d a85a ebbd
000001f0: 7c3c 483d 095b 25bd 0b5b b33d 7ad5 cabd
00000200: 4b1b dd3b 7851 923c 936c 16be 8ef1 07be
00000210: 7466 8f3d b4a8 59bd a610 de3d d2af 38be
00000220: dbd5 b8bd 0ffd 19be fc5d 953d 7e71 adbb
00000230: 337c 0bbd 3ad5 f8bc 4822 12be 3f14 543d
00000240: fc1e 953b 4f05 01be ceb2 8c3d 1c7d 70bb
00000250: 63d0 34be 8222 c93d 5db3 103e ec1c f73d
00000260: 1293 09bc 8833 f03b 4c64 6f3e f17a 873e
00000270: 531d 0dbe 69e2 a8bd e3a6 6e3e 0f18 4d3e
00000280: b9a0 033b b4d3 f43d ac85 453e 94f5 25bd
00000290: cae1 81be b3c1 46bd 25f6 463d 10fe 5fbe
000002a0: 8ead 2b3e 3e35 8f3e 9b0e 31be 76fe 4d3e
000002b0: 6041 afbd 2de3 5b3e 19db b73d 71b0 bb3d
000002c0: 24dd b53d 600c 0abe 2e20 ac3e 9e41 cdbd
000002d0: 125f 88bd c50d c13d fdab 6a3d a8c5 41bd
000002e0: 18f2 4cbd 2255 25be 07fe 4cbd 1e7a 97bd
000002f0: decc cbbd b0dc 28be 081e ef3d a03b 2abe
00000300: 0a98 393e 1520 c4bd a381 35bd 4016 053e
00000310: 65c0 3e3d 908e 7bbd 9c82 16be 3ae0 98bd
00000320: 017e 133e 5a31 8dbd 3375 1d3e a2c9 00bd
00000330: 8155 f6bc 9771 923d 0cc3 dbbc 7e3c 8abc
00000340: 027c 013e 8da9 403d 1a7b d73c a1c9 443e
00000350: 0cf3 803e 527b 3c3d 0311 b03c cd88 0b3e
00000360: 7cda 82bc aa2a 12be b2db 013b 703e 2e3e
00000370: 209c 643d 96ff 773e 46ee a1bd ea35 843e
00000380: b80a 9cbd 66f7 aa3d 01d9 93bc 7c59 b4bd
00000390: 60a1 a73d 6fa5 e33c e625 edbd 2ead a03d
000003a0: bd92 163e cd5c 0f3e 9133 133e 7a5c 1fbe
000003b0: 858c dd3d c1b3 3a3d 0650 7d3d 321d bd3b
000003c0: 210b 8f3c c4bf 35be 8dc5 0bbe 867f 183e
000003d0: f2bf 78bd 99dd 49bd b8a5 ecbd ce95 dfbd
000003e0: 30f7 f43d dc4c 633c 9734 79bd c0f3 cc3a
000003f0: c5d1 d4bd 11c9 58be c79b 39be ebf6 433d
-0.17654061 -0.010354549 -0.05676426 0.12630384 -0.16000342 -0.052113563 0.17826222 0.1228102
0.05344762 -0.14204049 0.31757814 -0.3460739 -0.016925842 -0.20337035 0.34109804 0.037001204
0.010751 0.29786846 0.09038954 -0.09515624 0.22209796 -0.27862644 0.092774324 -0.047487587
0.018567935 0.050593603 -0.15959696 0.19753544 -0.16641769 0.30958766 -0.05774929 0.06230913
0.17966199 -0.07831867 0.17139804 -0.092760645 0.080477774 0.07152345 0.04866892 0.142045
-0.074913435 0.043407694 0.00012777407 -0.1397424 -0.044331558 -0.12284644 0.07897753 0.016412683
0.01788417 -0.057607032 0.0008779162 -0.060936853 0.05194542 0.17657496 0.02704198 -0.08086545
-0.11196441 0.013955792 -0.14062248 -0.13723192 -0.11740291 -0.06444051 0.012111286 0.1257227
0.07120266 0.13983591 -0.11463785 0.015407095 -0.16503124 0.10457066 -0.052721173 0.16907175
-0.12962018 0.14696082 0.027925432 0.09183488 -0.011726138 0.12427748 0.12200247 0.1358717
-0.035990667 -0.1416099 -0.007335903 0.03643614 -0.15097001 -0.11306965 -0.1722883 -0.124113694
0.15534034 -0.022036303 -0.011151649 0.00733182 0.11384334 -0.1612246 -0.14087234 -0.060700513
-0.105074756 0.09416904 0.12900391 -0.17713818 -0.154947 -0.177794 0.06887693 0.14694566
-0.14155708 -0.084523894 0.058098868 -0.11921826 0.15509303 0.042569216 -0.05082566 0.0118583
0.056920886 -0.06456063 -0.14146867 0.0012271935 0.003325578 0.0036816457 -0.026643103 0.11722605
-0.050949 -0.017671848 0.07507225 -0.11491901 0.048885807 -0.04037002 0.087575994 -0.09903999
0.0067476383 0.017861113 -0.14689855 -0.1327574 0.07001963 -0.053139403 0.10843019 -0.1803582
-0.09025165 -0.1503794 0.07293317 -0.0052930703 -0.034053992 -0.030375112 -0.1427089 0.05177712
0.0045508128 -0.12599681 0.06870042 -0.0036695665 -0.17657618 0.09821035 0.14130922 0.12066063
-0.008396881 0.0073303618 0.23378104 0.26460984 -0.13780718 -0.08246309 0.2330585 0.20028709
0.0020084812 0.11954442 0.19289273 -0.040517405 -0.25367576 -0.04852457 0.048574585 -0.21874261
0.16765425 0.27970308 -0.17290728 0.201166 -0.08557391 0.2147338 0.089773364 0.09164513
0.0888007 -0.13481283 0.336183 -0.10022281 -0.06658758 0.094264545 0.057292927 -0.04730764
-0.050035566 -0.16145757 -0.050046947 -0.07396339 -0.09951185 -0.16490436 0.1167565 -0.16624308
0.18124405 -0.09576432 -0.044313084 0.12996769 0.0465702 -0.061415255 -0.14698261 -0.07464643
0.14403535 -0.06894179 0.15376739 -0.031442292 -0.030070068 0.07150572 -0.026826404 -0.016874548
0.12644961 0.047036696 0.026303817 0.1921754 0.2518543 0.046016045 0.021492487 0.13626404
-0.015973322 -0.14274088 0.0019814787 0.17016006 0.055812955 0.24218592 -0.07906775 0.25822383
-0.07619232 0.08347969 -0.018047811 -0.0880613 0.08185077 0.027788846 -0.11579494 0.078455314
0.14704414 0.14000244 0.1437514 -0.15562621 0.108178176 0.045581583 0.061843894 0.0057713026
0.017461361 -0.17748934 -0.13649578 0.14892396 -0.06072993 -0.049283598 -0.11555046 -0.10917245
0.1196121 0.013873305 -0.06084117 0.0015636608 -0.10391573 -0.21170451 -0.1812583 0.0478429

layers.2.bias f4 [20]
00000000: 562e 1c3e cf0e a5bd 82bc 4dbe 7b49 04be
00000010: 9aa9 b13d 139e 89bc 4b3d f03d 3587 803d
00000020: 7d05 40bd 04f6 d33d 9d43 8a3d 9756 04be
00000030: 75f6 d23c 27ce aabb 26f6 f5bd cbd8 8d3d
00000040: 7780 ae3d 63b3 9ebd a28b 0cbe 8047 9e3d
0.15252051 -0.08059465 -0.20091441 -0.12918656 0.08674927 -0.016799008 0.11730441 0.06275789
-0.046880234 0.10349658 0.067511775 -0.12923656 0.025752285 -0.0052125636 -0.1200984 0.069261156
0.085205965 -0.07749059 -0.1372514 0.07728481

layers.4.weight f4 [2, 20]
00000000: 364b f4be de3f 4a3d f7ec d5bc e00a 193d
00000010: 9a85 363d fdff c13e 7a7f 5dbe 300d 2e3e
00000020: 8b50 d3bd 367c 6a3e e916 98bd d97d 473e
00000030: b2d7 503d d3f2 22bd fd42 c2bd ce50 983e
00000040: 59f7 11be d732 d2bd f0ab bb3c f947 14be
00000050: a035 eb3e ba73 663d 5233 53be 66ae 61be
00000060: bfc6 c73d bcfa d0be 070d 93bd a758 c8be
00000070: 26ee 603d 5b7e 28be d0e7 b83d aec1 5bbe
00000080: e8f2 723e cd16 43be e712 f83c cd37 9abe
00000090: 7d9c 23be e6ee cebb 92ec afbe 1593 3e3e
-0.4771363 0.049377315 -0.02611397 0.037363887 0.044561006 0.37890616 -0.2163066 0.16997218
-0.10318097 0.22898945 -0.07426245 0.19481601 0.050986953 -0.039782356 -0.09485433 0.2974915
-0.14254512 -0.10263603 0.022909135 -0.1448058 0.4593935 0.05626271 -0.20625046 -0.22039184
0.09754705 -0.40816295 -0.07180219 -0.39130136 0.054914616 -0.16454451 0.0902859 -0.21460602
0.23725474 -0.19051667 0.03028245 -0.30120698 -0.15977664 -0.0063151 -0.34360176 0.18610795

layers.4.bias f4 [2]
00000000: e6cd 04be 8632 0f3e
-0.12969169 0.13984117
